…
t.data, 0.0, gain)\n","/content/drive/My Drive/Colab Notebooks/DL/models/networks.py:57: UserWarning: nn.init.constant is now deprecated in favor of nn.init.constant_.\n","  init.constant(m.bias.data, 0.0)\n","initialize network with normal\n","initialize network with normal\n","initialize network with normal\n","initialize network with normal\n","---------- Networks initialized -------------\n","DataParallel(\n","  (module): Encoder(\n","    (middle): Sequential(\n","      (0): ResnetBlock(\n","        (conv_block): Sequential(\n","          (0): ReflectionPad2d((2, 2, 2, 2))\n","          (1): Conv2d(512, 512, kernel_size=(3, 3), stride=(1, 1), dilation=(2, 2), bias=False)\n","          (2): InstanceNorm2d(512, eps=1e-05, momentum=0.1, affine=False, track_running_stats=False)\n","          (3): ReLU(inplace=True)\n","          (4): ReflectionPad2d((1, 1, 1, 1))\n","          (5): Conv2d(512, 512, kernel_size=(3, 3), stride=(1, 1), bias=False)\n","          (6): InstanceNorm2d(512, eps=1e-05, momentum=0.1, affine=False, track_running_stats=False)\n","        )\n","      )\n","      (1): ResnetBlock(\n","        (conv_block): Sequential(\n","          (0): ReflectionPad2d((2, 2, 2, 2))\n","          (1): Conv2d(512, 512, kernel_size=(3, 3), stride=(1, 1), dilation=(2, 2), bias=False)\n","          (2): InstanceNorm2d(512, eps=1e-05, momentum=0.1, affine=False, track_running_stats=False)\n","          (3): ReLU(inplace=True)\n","          (4): ReflectionPad2d((1, 1, 1, 1))\n","          (5): Conv2d(512, 512, kernel_size=(3, 3), stride=(1, 1), bias=False)\n","          (6): InstanceNorm2d(512, eps=1e-05, momentum=0.1, affine=False, track_running_stats=False)\n","        )\n","      )\n","      (2): ResnetBlock(\n","        (conv_block): Sequential(\n","          (0): ReflectionPad2d((2, 2, 2, 2))\n","          (1): Conv2d(512, 512, kernel_size=(3, 3), stride=(1, 1), dilation=(2, 2), bias=False)\n","          (2): InstanceNorm2d(512, eps=1e-05, momentum=0.1, affine=False, track_running_stats=False)\n","          (3): ReLU(inplace=True)\n","          (4): ReflectionPad2d((1, 1, 1, 1))\n","          (5): Conv2d(512, 512, kernel_size=(3, 3), stride=(1, 1), bias=False)\n","          (6): InstanceNorm2d(512, eps=1e-05, momentum=0.1, affine=False, track_running_stats=False)\n","        )\n","      )\n","      (3): ResnetBlock(\n","        (conv_block): Sequential(\n","          (0): ReflectionPad2d((2, 2, 2, 2))\n","          (1): Conv2d(512, 512, kernel_size=(3, 3), stride=(1, 1), dilation=(2, 2), bias=False)\n","          (2): InstanceNorm2d(512, eps=1e-05, momentum=0.1, affine=False, track_running_stats=False)\n","          (3): ReLU(inplace=True)\n","          (4): ReflectionPad2d((1, 1, 1, 1))\n","          (5): Conv2d(512, 512, kernel_size=(3, 3), stride=(1, 1), bias=False)\n","          (6): InstanceNorm2d(512, eps=1e-05, momentum=0.1, affine=False, track_running_stats=False)\n","        )\n","      )\n","    )\n","    (Encoder_1): UnetSkipConnectionEBlock(\n","      (model): Sequential(\n","        (0): Conv2d(6, 64, kernel_size=(4, 4), stride=(2, 2), padding=(1, 1))\n","      )\n","    )\n","    (Encoder_2): UnetSkipConnectionEBlock(\n","      (model): Sequential(\n","        (0): LeakyReLU(negative_slope=0.2, inplace=True)\n","        (1): Conv2d(64, 128, kernel_size=(4, 4), stride=(2, 2), padding=(1, 1))\n","        (2): InstanceNorm2d(128, eps=1e-05, momentum=0.1, affine=True, track_running_stats=False)\n","      )\n","    )\n","    (Encoder_3): UnetSkipConnectionEBlock(\n","      (model): Sequential(\n","        (0): LeakyReLU(negative_slope=0.2, inplace=True)\n","        (1): Conv2d(128, 256, kernel_size=(4, 4), stride=(2, 2), padding=(1, 1))\n","        (2): InstanceNorm2d(256, eps=1e-05, momentum=0.1, affine=True, track_running_stats=False)\n","      )\n","    )\n","    (Encoder_4): UnetSkipConnectionEBlock(\n","      (model): Sequential(\n","        (0): LeakyReLU(negative_slope=0.2, inplace=True)\n","        (1): Conv2d(256, 512, kernel_size=(4, 4), stride=(2, 2), padding=(1, 1))\n","        (2): InstanceNorm2d(512, eps=1e-05, momentum=0.1, affine=True, track_running_stats=False)\n","      )\n","    )\n","    (Encoder_5): UnetSkipConnectionEBlock(\n","      (model): Sequential(\n","        (0): LeakyReLU(negative_slope=0.2, inplace=True)\n","        (1): Conv2d(512, 512, kernel_size=(4, 4), stride=(2, 2), padding=(1, 1))\n","        (2): InstanceNorm2d(512, eps=1e-05, momentum=0.1, affine=True, track_running_stats=False)\n","      )\n","    )\n","    (Encoder_6): UnetSkipConnectionEBlock(\n","      (model): Sequential(\n","        (0): LeakyReLU(negative_slope=0.2, inplace=True)\n","        (1): Conv2d(512, 512, kernel_size=(4, 4), stride=(2, 2), padding=(1, 1))\n","      )\n","    )\n","  )\n",")\n","Total number of parameters: 30026432\n","DataParallel(\n","  (module): Decoder(\n","    (Decoder_1): UnetSkipConnectionDBlock(\n","      (model): Sequential(\n","        (0): ReLU(inplace=True)\n","        (1): ConvTranspose2d(512, 512, kernel_size=(4, 4), stride=(2, 2), padding=(1, 1))\n","        (2): InstanceNorm2d(512, eps=1e-05, momentum=0.1, affine=True, track_running_stats=False)\n","      )\n","    )\n","    (Decoder_2): UnetSkipConnectionDBlock(\n","      (model): Sequential(\n","        (0): ReLU(inplace=True)\n","        (1): ConvTranspose2d(1024, 512, kernel_size=(4, 4), stride=(2, 2), padding=(1, 1))\n","        (2): InstanceNorm2d(512, eps=1e-05, momentum=0.1, affine=True, track_running_stats=False)\n","      )\n","    )\n","    (Decoder_3): UnetSkipConnectionDBlock(\n","      (model): Sequential(\n","        (0): ReLU(inplace=True)\n","        (1): ConvTranspose2d(1024, 256, kernel_size=(4, 4), stride=(2, 2), padding=(1, 1))\n","        (2): InstanceNorm2d(256, eps=1e-05, momentum=0.1, affine=True, track_running_stats=False)\n","      )\n","    )\n","    (Decoder_4): UnetSkipConnectionDBlock(\n","      (model): Sequential(\n","        (0): ReLU(inplace=True)\n","        (1): ConvTranspose2d(512, 128, kernel_size=(4, 4), stride=(2, 2), padding=(1, 1))\n","        (2): InstanceNorm2d(128, eps=1e-05, momentum=0.1, affine=True, track_running_stats=False)\n","      )\n","    )\n","    (Decoder_5): UnetSkipConnectionDBlock(\n","      (model): Sequential(\n","        (0): ReLU(inplace=True)\n","        (1): ConvTranspose2d(256, 64, kernel_size=(4, 4), stride=(2, 2), padding=(1, 1))\n","        (2): InstanceNorm2d(64, eps=1e-05, momentum=0.1, affine=True, track_running_stats=False)\n","      )\n","    )\n","    (Decoder_6): UnetSkipConnectionDBlock(\n","      (model): Sequential(\n","        (0): ReLU(inplace=True)\n","        (1): ConvTranspose2d(128, 3, kernel_size=(4, 4), stride=(2, 2), padding=(1, 1))\n","        (2): Tanh()\n","      )\n","    )\n","  )\n",")\n","Total number of parameters: 18098499\n","DataParallel(\n","  (module): PCblock(\n","    (pc_block): PCconv(\n","      (down_128): ConvDown(\n","        (model): Sequential(\n","          (0): Conv2d(64, 128, kernel_size=(4, 4), stride=(2, 2), padding=(1, 1), bias=False)\n","          (1): InstanceNorm2d(128, eps=1e-05, momentum=0.1, affine=False, track_running_stats=False)\n","          (2): LeakyReLU(negative_slope=0.2, inplace=True)\n","          (3): Conv2d(128, 256, kernel_size=(4, 4), stride=(2, 2), padding=(1, 1), bias=False)\n","          (4): InstanceNorm2d(256, eps=1e-05, momentum=0.1, affine=False, track_running_stats=False)\n","          (5): LeakyReLU(negative_slope=0.2, inplace=True)\n","        )\n","      )\n","      (down_64): ConvDown(\n","        (model): Sequential(\n","          (0): Conv2d(128, 256, kernel_size=(4, 4), stride=(2, 2), padding=(1, 1), bias=False)\n","          (1): InstanceNorm2d(256, eps=1e-05, momentum=0.1, affine=False, track_running_stats=False)\n","          (2): LeakyReLU(negative_slope=0.2, inplace=True)\n","        )\n","      )\n","      (down_32): ConvDown(\n","        (model): Sequential(\n","          (0): Conv2d(256, 256, kernel_size=(1, 1), stride=(1, 1), bias=False)\n","          (1): InstanceNorm2d(256, eps=1e-05, momentum=0.1, affine=False, track_running_stats=False)\n","          (2): LeakyReLU(negative_slope=0.2, inplace=True)\n","        )\n","      )\n","      (down_16): ConvDown(\n","        (model): Sequential(\n","          (0): Conv2d(512, 512, kernel_size=(4, 4), stride=(2, 2), padding=(1, 1), bias=False)\n","          (1): InstanceNorm2d(512, eps=1e-05, momentum=0.1, affine=False, track_running_stats=False)\n","        )\n","      )\n","      (down_8): ConvDown(\n","        (model): Sequential(\n","          (0): Conv2d(512, 512, kernel_size=(4, 4), stride=(2, 2), padding=(1, 1), bias=False)\n","          (1): InstanceNorm2d(512, eps=1e-05, momentum=0.1, affine=False, track_running_stats=False)\n","          (2): LeakyReLU(negative_slope=0.2, inplace=True)\n","          (3): Conv2d(512, 512, kernel_size=(4, 4), stride=(2, 2), padding=(1, 1), bias=False)\n","          (4): InstanceNorm2d(512, eps=1e-05, momentum=0.1, affine=False, track_running_stats=False)\n","        )\n","      )\n","      (down_4): ConvDown(\n","        (model): Sequential(\n","          (0): Conv2d(512, 512, kernel_size=(4, 4), stride=(2, 2), padding=(1, 1), bias=False)\n","          (1): InstanceNorm2d(512, eps=1e-05, momentum=0.1, affine=False, track_running_stats=False)\n","          (2): LeakyReLU(negative_slope=0.2, inplace=True)\n","          (3): Conv2d(512, 512, kernel_size=(4, 4), stride=(2, 2), padding=(1, 1), bias=False)\n","          (4): InstanceNorm2d(512, eps=1e-05, momentum=0.1, affine=False, track_running_stats=False)\n","          (5): LeakyReLU(negative_slope=0.2, inplace=True)\n","          (6): Conv2d(512, 512, kernel_size=(4, 4), stride=(2, 2), padding=(1, 1), bias=False)\n","          (7): InstanceNorm2d(512, eps=1e-05, momentum=0.1, affine=False, track_running_stats=False)\n","        )\n","      )\n","      (down): ConvDown(\n","        (model): Sequential(\n","          (0): Conv2d(768, 256, kernel_size=(1, 1), stride=(1, 1), bias=False)\n","          (1): InstanceNorm2d(256, eps=1e-05, momentum=0.1, affine=False, track_running_stats=False)\n","          (2): LeakyReLU(negative_slope=0.2, inplace=True)\n","        )\n","      )\n","      (fuse): ConvDown(\n","        (model): Sequential(\n","          (0): Conv2d(512, 512, kernel_size=(1, 1), stride=(1, 1), bias=False)\n","          (1): InstanceNorm2d(512, eps=1e-05, momentum=0.1, affine=False, track_running_stats=False)\n","          (2): LeakyReLU(negative_slope=0.2, inplace=True)\n","        )\n","      )\n","      (up): ConvUp(\n","        (conv): Conv2d(512, 256, kernel_size=(1, 1), stride=(1, 1), bias=False)\n","        (bn): InstanceNorm2d(256, eps=1e-05, momentum=0.1, affine=False, track_running_stats=False)\n","        (relu): LeakyReLU(negative_slope=0.2)\n","      )\n","      (up_128): ConvUp(\n","        (conv): Conv2d(512, 64, kernel_size=(1, 1), stride=(1, 1), bias=False)\n","        (bn): InstanceNorm2d(64, eps=1e-05, momentum=0.1, affine=False, track_running_stats=False)\n","        (relu): LeakyReLU(negative_slope=0.2)\n","      )\n","      (up_64): ConvUp(\n","        (conv): Conv2d(512, 128, kernel_size=(1, 1), stride=(1, 1), bias=False)\n","        (bn): InstanceNorm2d(128, eps=1e-05, momentum=0.1, affine=False, track_running_stats=False)\n","        (relu): LeakyReLU(negative_slope=0.2)\n","      )\n","      (up_32): ConvUp(\n","        (conv): Conv2d(512, 256, kernel_size=(1, 1), stride=(1, 1), bias=False)\n","        (bn): InstanceNorm2d(256, eps=1e-05, momentum=0.1, affine=False, track_running_stats=False)\n","        (relu): LeakyReLU(negative_slope=0.2)\n","      )\n","      (base): BASE(\n","        (model): Sequential(\n","          (0): SELayer(\n","            (avg_pool): AdaptiveAvgPool2d(output_size=1)\n","            (fc): Sequential(\n","              (0): Conv2d(512, 32, kernel_size=(1, 1), stride=(1, 1))\n","              (1): ReLU(inplace=True)\n","              (2): Conv2d(32, 512, kernel_size=(1, 1), stride=(1, 1))\n","              (3): Sigmoid()\n","            )\n","          )\n","        )\n","        (down): Sequential(\n","          (0): Conv2d(1024, 512, kernel_size=(1, 1), stride=(1, 1), bias=False)\n","          (1): InstanceNorm2d(512, eps=1e-05, momentum=0.1, affine=False, track_running_stats=False)\n","          (2): LeakyReLU(negative_slope=0.2)\n","        )\n","      )\n","      (cov_3): Sequential(\n","        (0): PCBActiv(\n","          (conv): PartialConv(\n","            (input_conv): Conv2d(256, 256, kernel_size=(3, 3), stride=(1, 1), padding=(1, 1), bias=False)\n","            (mask_conv): Conv2d(256, 256, kernel_size=(3, 3), stride=(1, 1), padding=(1, 1), bias=False)\n","          )\n","          (bn): InstanceNorm2d(256, eps=1e-05, momentum=0.1, affine=True, track_running_stats=False)\n","          (activation): LeakyReLU(negative_slope=0.2)\n","        )\n","        (1): PCBActiv(\n","          (conv): PartialConv(\n","            (input_conv): Conv2d(256, 256, kernel_size=(3, 3), stride=(1, 1), padding=(1, 1), bias=False)\n","            (mask_conv): Conv2d(256, 256, kernel_size=(3, 3), stride=(1, 1), padding=(1, 1), bias=False)\n","          )\n","          (bn): InstanceNorm2d(256, eps=1e-05, momentum=0.1, affine=True, track_running_stats=False)\n","          (activation): LeakyReLU(negative_slope=0.2)\n","        )\n","        (2): PCBActiv(\n","          (conv): PartialConv(\n","            (input_conv): Conv2d(256, 256, kernel_size=(3, 3), stride=(1, 1), padding=(1, 1), bias=False)\n","            (mask_conv): Conv2d(256, 256, kernel_size=(3, 3), stride=(1, 1), padding=(1, 1), bias=False)\n","          )\n","          (bn): InstanceNorm2d(256, eps=1e-05, momentum=0.1, affine=True, track_running_stats=False)\n","          (activation): LeakyReLU(negative_slope=0.2)\n","        )\n","        (3): PCBActiv(\n","          (conv): PartialConv(\n","            (input_conv): Conv2d(256, 256, kernel_size=(3, 3), stride=(1, 1), padding=(1, 1), bias=False)\n","            (mask_conv): Conv2d(256, 256, kernel_size=(3, 3), stride=(1, 1), padding=(1, 1), bias=False)\n","          )\n","          (bn): InstanceNorm2d(256, eps=1e-05, momentum=0.1, affine=True, track_running_stats=False)\n","          (activation): LeakyReLU(negative_slope=0.2)\n","        )\n","        (4): PCBActiv(\n","          (conv): PartialConv(\n","            (input_conv): Conv2d(256, 256, kernel_size=(3, 3), stride=(1, 1), padding=(1, 1), bias=False)\n","            (mask_conv): Conv2d(256, 256, kernel_size=(3, 3), stride=(1, 1), padding=(1, 1), bias=False)\n","          )\n","          (bn): InstanceNorm2d(256, eps=1e-05, momentum=0.1, affine=True, track_running_stats=False)\n","          (activation): LeakyReLU(negative_slope=0.2)\n","        )\n","      )\n","      (cov_5): Sequential(\n","        (0): PCBActiv(\n","          (conv): PartialConv(\n","            (input_conv): Conv2d(256, 256, kernel_size=(5, 5), stride=(1, 1), padding=(2, 2), bias=False)\n","            (mask_conv): Conv2d(256, 256, kernel_size=(5, 5), stride=(1, 1), padding=(2, 2), bias=False)\n","          )\n","          (bn): InstanceNorm2d(256, eps=1e-05, momentum=0.1, affine=True, track_running_stats=False)\n","          (activation): LeakyReLU(negative_slope=0.2)\n","        )\n","        (1): PCBActiv(\n","          (conv): PartialConv(\n","            (input_conv): Conv2d(256, 256, kernel_size=(5, 5), stride=(1, 1), padding=(2, 2), bias=False)\n","            (mask_conv): Conv2d(256, 256, kernel_size=(5, 5), stride=(1, 1), padding=(2, 2), bias=False)\n","          )\n","          (bn): InstanceNorm2d(256, eps=1e-05, momentum=0.1, affine=True, track_running_stats=False)\n","          (activation): LeakyReLU(negative_slope=0.2)\n","        )\n","        (2): PCBActiv(\n","          (conv): PartialConv(\n","            (input_conv): Conv2d(256, 256, kernel_size=(5, 5), stride=(1, 1), padding=(2, 2), bias=False)\n","            (mask_conv): Conv2d(256, 256, kernel_size=(5, 5), stride=(1, 1), padding=(2, 2), bias=False)\n","          )\n","          (bn): InstanceNorm2d(256, eps=1e-05, momentum=0.1, affine=True, track_running_stats=False)\n","          (activation): LeakyReLU(negative_slope=0.2)\n","        )\n","        (3): PCBActiv(\n","          (conv): PartialConv(\n","            (input_conv): Conv2d(256, 256, kernel_size=(5, 5), stride=(1, 1), padding=(2, 2), bias=False)\n","            (mask_conv): Conv2d(256, 256, kernel_size=(5, 5), stride=(1, 1), padding=(2, 2), bias=False)\n","          )\n","          (bn): InstanceNorm2d(256, eps=1e-05, momentum=0.1, affine=True, track_running_stats=False)\n","          (activation): LeakyReLU(negative_slope=0.2)\n","        )\n","        (4): PCBActiv(\n","          (conv): PartialConv(\n","            (input_conv): Conv2d(256, 256, kernel_size=(5, 5), stride=(1, 1), padding=(2, 2), bias=False)\n","            (mask_conv): Conv2d(256, 256, kernel_size=(5, 5), stride=(1, 1), padding=(2, 2), bias=False)\n","          )\n","          (bn): InstanceNorm2d(256, eps=1e-05, momentum=0.1, affine=True, track_running_stats=False)\n","          (activation): LeakyReLU(negative_slope=0.2)\n","        )\n","      )\n","      (cov_7): Sequential(\n","        (0): PCBActiv(\n","          (conv): PartialConv(\n","            (input_conv): Conv2d(256, 256, kernel_size=(7, 7), stride=(1, 1), padding=(3, 3), bias=False)\n","            (mask_conv): Conv2d(256, 256, kernel_size=(7, 7), stride=(1, 1), padding=(3, 3), bias=False)\n","          )\n","          (bn): InstanceNorm2d(256, eps=1e-05, momentum=0.1, affine=True, track_running_stats=False)\n","          (activation): LeakyReLU(negative_slope=0.2)\n","        )\n","        (1): PCBActiv(\n","          (conv): PartialConv(\n","            (input_conv): Conv2d(256, 256, kernel_size=(7, 7), stride=(1, 1), padding=(3, 3), bias=False)\n","            (mask_conv): Conv2d(256, 256, kernel_size=(7, 7), stride=(1, 1), padding=(3, 3), bias=False)\n","          )\n","          (bn): InstanceNorm2d(256, eps=1e-05, momentum=0.1, affine=True, track_running_stats=False)\n","          (activation): LeakyReLU(negative_slope=0.2)\n","        )\n","        (2): PCBActiv(\n","          (conv): PartialConv(\n","            (input_conv): Conv2d(256, 256, kernel_size=(7, 7), stride=(1, 1), padding=(3, 3), bias=False)\n","            (mask_conv): Conv2d(256, 256, kernel_size=(7, 7), stride=(1, 1), padding=(3, 3), bias=False)\n","          )\n","          (bn): InstanceNorm2d(256, eps=1e-05, momentum=0.1, affine=True, track_running_stats=False)\n","          (activation): LeakyReLU(negative_slope=0.2)\n","        )\n","        (3): PCBActiv(\n","          (conv): PartialConv(\n","            (input_conv): Conv2d(256, 256, kernel_size=(7, 7), stride=(1, 1), padding=(3, 3), bias=False)\n","            (mask_conv): Conv2d(256, 256, kernel_size=(7, 7), stride=(1, 1), padding=(3, 3), bias=False)\n","          )\n","          (bn): InstanceNorm2d(256, eps=1e-05, momentum=0.1, affine=True, track_running_stats=False)\n","          (activation): LeakyReLU(negative_slope=0.2)\n","        )\n","        (4): PCBActiv(\n","          (conv): PartialConv(\n","            (input_conv): Conv2d(256, 256, kernel_size=(7, 7), stride=(1, 1), padding=(3, 3), bias=False)\n","            (mask_conv): Conv2d(256, 256, kernel_size=(7, 7), stride=(1, 1), padding=(3, 3), bias=False)\n","          )\n","          (bn): InstanceNorm2d(256, eps=1e-05, momentum=0.1, affine=True, track_running_stats=False)\n","          (activation): LeakyReLU(negative_slope=0.2)\n","        )\n","      )\n","      (activation): LeakyReLU(negative_slope=0.2)\n","    )\n","    (loss): Sequential(\n","      (0): InnerCos\n","    )\n","  )\n",")\n","Total number of parameters: 82191139\n","DataParallel(\n","  (module): NLayerDiscriminator(\n","    (model): Sequential(\n","      (0): Conv2d(3, 64, kernel_size=(4, 4), stride=(2, 2), padding=(1, 1))\n","      (1): LeakyReLU(negative_slope=0.2, inplace=True)\n","      (2): Conv2d(64, 128, kernel_size=(4, 4), stride=(2, 2), padding=(1, 1))\n","      (3): LeakyReLU(negative_slope=0.2, inplace=True)\n","      (4): Conv2d(128, 256, kernel_size=(4, 4), stride=(2, 2), padding=(1, 1))\n","      (5): LeakyReLU(negative_slope=0.2, inplace=True)\n","      (6): Conv2d(256, 512, kernel_size=(4, 4), stride=(2, 2), padding=(1, 1))\n","      (7): LeakyReLU(negative_slope=0.2, inplace=True)\n","      (8): Conv2d(512, 1, kernel_size=(4, 4), stride=(2, 2), padding=(1, 1))\n","    )\n","  )\n",")\n","Total number of parameters: 2764737\n","DataParallel(\n","  (module): NLayerDiscriminator(\n","    (model): Sequential(\n","      (0): Conv2d(3, 64, kernel_size=(4, 4), stride=(2, 2), padding=(1, 1))\n","      (1): LeakyReLU(negative_slope=0.2, inplace=True)\n","      (2): Conv2d(64, 128, kernel_size=(4, 4), stride=(2, 2), padding=(1, 1))\n","      (3): LeakyReLU(negative_slope=0.2, inplace=True)\n","      (4): Conv2d(128, 256, kernel_size=(4, 4), stride=(2, 2), padding=(1, 1))\n","      (5): LeakyReLU(negative_slope=0.2, inplace=True)\n","      (6): Conv2d(256, 512, kernel_size=(4, 4), stride=(2, 2), padding=(1, 1))\n","      (7): LeakyReLU(negative_slope=0.2, inplace=True)\n","      (8): Conv2d(512, 1, kernel_size=(4, 4), stride=(2, 2), padding=(1, 1))\n","    )\n","  )\n",")\n","Total number of parameters: 2764737\n","-----------------------------------------------\n","model [training1] was created\n","2021-03-28 14:02:53.235860: I tensorflow/stream_executor/platform/default/dso_loader.cc:49] Successfully opened dynamic library libcudart.so.11.0\n","/usr/local/lib/python3.7/dist-package
…
